==========================   BI-LSTM - Baseline  Param   ==========================


Layer (type)                 Output Shape              Param #   
=================================================================
input_3 (InputLayer)         (None, 26, 300)           0         
_________________________________________________________________
bilstm_5 (LSTM)                (None, 26, 128)           219648    
_________________________________________________________________
dropout_5 (Dropout)          (None, 26, 128)           0         
_________________________________________________________________
bilstm_6 (LSTM)                (None, 128)               131584    
_________________________________________________________________
dropout_6 (Dropout)          (None, 128)               0         
_________________________________________________________________
dense_3 (Dense)              (None, 2)                 258       
_________________________________________________________________
activation_3 (Activation)    (None, 2)                 0         
=================================================================
Total params: 351,490
Trainable params: 351,490
Non-trainable params: 0

==========================  BI-LSTM - Baseline Output  ==========================

Epoch 1/10
1674/1674 [==============================] - 3351s 2s/step - loss: 0.4446 - f1-score: 0.7614 - val_loss: 0.3576 - val_f1-score: 0.7557
Epoch 2/10
1674/1674 [==============================] - 3234s 2s/step - loss: 0.3345 - f1-score: 0.7704 - val_loss: 0.3358 - val_f1-score: 0.7632
…
